# Total Parameters,# Total Neurons,Model Summary,Environment,Size,Use Lava,Average Test Reward,Test Reward Variance
31120,31120,"Sequential(
  (0): Conv2d(3, 8, kernel_size=(2, 2), stride=(1, 1), padding=(1, 1))
  (1): ReLU()
  (2): Conv2d(8, 16, kernel_size=(2, 2), stride=(1, 1), padding=(1, 1))
  (3): ReLU()
  (4): Conv2d(16, 32, kernel_size=(2, 2), stride=(1, 1), padding=(1, 1))
  (5): ReLU()
  (6): Flatten(start_dim=1, end_dim=-1)
  (7): Linear(in_features=3200, out_features=8, bias=True)
  (8): ReLU()
  (9): Linear(in_features=8, out_features=16, bias=True)
  (10): ReLU()
  (11): Linear(in_features=16, out_features=32, bias=True)
  (12): ReLU()
  (13): Linear(in_features=32, out_features=64, bias=True)
  (14): ReLU()
)",WallEnv-v0,14,False,0.20128317,0.23642015
33712,33712,"Sequential(
  (0): Conv2d(3, 8, kernel_size=(2, 2), stride=(1, 1), padding=(1, 1))
  (1): ReLU()
  (2): Conv2d(8, 16, kernel_size=(2, 2), stride=(1, 1), padding=(1, 1))
  (3): ReLU()
  (4): Conv2d(16, 32, kernel_size=(2, 2), stride=(1, 1), padding=(1, 1))
  (5): ReLU()
  (6): Flatten(start_dim=1, end_dim=-1)
  (7): Linear(in_features=3200, out_features=8, bias=True)
  (8): ReLU()
  (9): Linear(in_features=8, out_features=16, bias=True)
  (10): ReLU()
  (11): Linear(in_features=16, out_features=64, bias=True)
  (12): ReLU()
  (13): Linear(in_features=64, out_features=64, bias=True)
  (14): ReLU()
)",WallEnv-v0,14,False,0.10204337,0.19445178
38896,38896,"Sequential(
  (0): Conv2d(3, 8, kernel_size=(2, 2), stride=(1, 1), padding=(1, 1))
  (1): ReLU()
  (2): Conv2d(8, 16, kernel_size=(2, 2), stride=(1, 1), padding=(1, 1))
  (3): ReLU()
  (4): Conv2d(16, 32, kernel_size=(2, 2), stride=(1, 1), padding=(1, 1))
  (5): ReLU()
  (6): Flatten(start_dim=1, end_dim=-1)
  (7): Linear(in_features=3200, out_features=8, bias=True)
  (8): ReLU()
  (9): Linear(in_features=8, out_features=16, bias=True)
  (10): ReLU()
  (11): Linear(in_features=16, out_features=128, bias=True)
  (12): ReLU()
  (13): Linear(in_features=128, out_features=64, bias=True)
  (14): ReLU()
)",WallEnv-v0,14,False,0.071113944,0.16503069
31776,31776,"Sequential(
  (0): Conv2d(3, 8, kernel_size=(2, 2), stride=(1, 1), padding=(1, 1))
  (1): ReLU()
  (2): Conv2d(8, 16, kernel_size=(2, 2), stride=(1, 1), padding=(1, 1))
  (3): ReLU()
  (4): Conv2d(16, 32, kernel_size=(2, 2), stride=(1, 1), padding=(1, 1))
  (5): ReLU()
  (6): Flatten(start_dim=1, end_dim=-1)
  (7): Linear(in_features=3200, out_features=8, bias=True)
  (8): ReLU()
  (9): Linear(in_features=8, out_features=32, bias=True)
  (10): ReLU()
  (11): Linear(in_features=32, out_features=32, bias=True)
  (12): ReLU()
  (13): Linear(in_features=32, out_features=64, bias=True)
  (14): ReLU()
)",WallEnv-v0,14,False,0.056614153,0.14535849
34880,34880,"Sequential(
  (0): Conv2d(3, 8, kernel_size=(2, 2), stride=(1, 1), padding=(1, 1))
  (1): ReLU()
  (2): Conv2d(8, 16, kernel_size=(2, 2), stride=(1, 1), padding=(1, 1))
  (3): ReLU()
  (4): Conv2d(16, 32, kernel_size=(2, 2), stride=(1, 1), padding=(1, 1))
  (5): ReLU()
  (6): Flatten(start_dim=1, end_dim=-1)
  (7): Linear(in_features=3200, out_features=8, bias=True)
  (8): ReLU()
  (9): Linear(in_features=8, out_features=32, bias=True)
  (10): ReLU()
  (11): Linear(in_features=32, out_features=64, bias=True)
  (12): ReLU()
  (13): Linear(in_features=64, out_features=64, bias=True)
  (14): ReLU()
)",WallEnv-v0,14,False,0.047588777,0.1314913
41088,41088,"Sequential(
  (0): Conv2d(3, 8, kernel_size=(2, 2), stride=(1, 1), padding=(1, 1))
  (1): ReLU()
  (2): Conv2d(8, 16, kernel_size=(2, 2), stride=(1, 1), padding=(1, 1))
  (3): ReLU()
  (4): Conv2d(16, 32, kernel_size=(2, 2), stride=(1, 1), padding=(1, 1))
  (5): ReLU()
  (6): Flatten(start_dim=1, end_dim=-1)
  (7): Linear(in_features=3200, out_features=8, bias=True)
  (8): ReLU()
  (9): Linear(in_features=8, out_features=32, bias=True)
  (10): ReLU()
  (11): Linear(in_features=32, out_features=128, bias=True)
  (12): ReLU()
  (13): Linear(in_features=128, out_features=64, bias=True)
  (14): ReLU()
)",WallEnv-v0,14,False,0.042980015,0.12067061
33088,33088,"Sequential(
  (0): Conv2d(3, 8, kernel_size=(2, 2), stride=(1, 1), padding=(1, 1))
  (1): ReLU()
  (2): Conv2d(8, 16, kernel_size=(2, 2), stride=(1, 1), padding=(1, 1))
  (3): ReLU()
  (4): Conv2d(16, 32, kernel_size=(2, 2), stride=(1, 1), padding=(1, 1))
  (5): ReLU()
  (6): Flatten(start_dim=1, end_dim=-1)
  (7): Linear(in_features=3200, out_features=8, bias=True)
  (8): ReLU()
  (9): Linear(in_features=8, out_features=64, bias=True)
  (10): ReLU()
  (11): Linear(in_features=64, out_features=32, bias=True)
  (12): ReLU()
  (13): Linear(in_features=32, out_features=64, bias=True)
  (14): ReLU()
)",WallEnv-v0,14,False,0.036840018,0.11272709
37216,37216,"Sequential(
  (0): Conv2d(3, 8, kernel_size=(2, 2), stride=(1, 1), padding=(1, 1))
  (1): ReLU()
  (2): Conv2d(8, 16, kernel_size=(2, 2), stride=(1, 1), padding=(1, 1))
  (3): ReLU()
  (4): Conv2d(16, 32, kernel_size=(2, 2), stride=(1, 1), padding=(1, 1))
  (5): ReLU()
  (6): Flatten(start_dim=1, end_dim=-1)
  (7): Linear(in_features=3200, out_features=8, bias=True)
  (8): ReLU()
  (9): Linear(in_features=8, out_features=64, bias=True)
  (10): ReLU()
  (11): Linear(in_features=64, out_features=64, bias=True)
  (12): ReLU()
  (13): Linear(in_features=64, out_features=64, bias=True)
  (14): ReLU()
)",WallEnv-v0,14,False,0.080430806,0.17941938
45472,45472,"Sequential(
  (0): Conv2d(3, 8, kernel_size=(2, 2), stride=(1, 1), padding=(1, 1))
  (1): ReLU()
  (2): Conv2d(8, 16, kernel_size=(2, 2), stride=(1, 1), padding=(1, 1))
  (3): ReLU()
  (4): Conv2d(16, 32, kernel_size=(2, 2), stride=(1, 1), padding=(1, 1))
  (5): ReLU()
  (6): Flatten(start_dim=1, end_dim=-1)
  (7): Linear(in_features=3200, out_features=8, bias=True)
  (8): ReLU()
  (9): Linear(in_features=8, out_features=64, bias=True)
  (10): ReLU()
  (11): Linear(in_features=64, out_features=128, bias=True)
  (12): ReLU()
  (13): Linear(in_features=128, out_features=64, bias=True)
  (14): ReLU()
)",WallEnv-v0,14,False,0.07149405,0.17103635
56856,56856,"Sequential(
  (0): Conv2d(3, 8, kernel_size=(2, 2), stride=(1, 1), padding=(1, 1))
  (1): ReLU()
  (2): Conv2d(8, 16, kernel_size=(2, 2), stride=(1, 1), padding=(1, 1))
  (3): ReLU()
  (4): Conv2d(16, 32, kernel_size=(2, 2), stride=(1, 1), padding=(1, 1))
  (5): ReLU()
  (6): Flatten(start_dim=1, end_dim=-1)
  (7): Linear(in_features=3200, out_features=16, bias=True)
  (8): ReLU()
  (9): Linear(in_features=16, out_features=16, bias=True)
  (10): ReLU()
  (11): Linear(in_features=16, out_features=32, bias=True)
  (12): ReLU()
  (13): Linear(in_features=32, out_features=64, bias=True)
  (14): ReLU()
)",WallEnv-v0,14,False,0.064344645,0.16367073
59448,59448,"Sequential(
  (0): Conv2d(3, 8, kernel_size=(2, 2), stride=(1, 1), padding=(1, 1))
  (1): ReLU()
  (2): Conv2d(8, 16, kernel_size=(2, 2), stride=(1, 1), padding=(1, 1))
  (3): ReLU()
  (4): Conv2d(16, 32, kernel_size=(2, 2), stride=(1, 1), padding=(1, 1))
  (5): ReLU()
  (6): Flatten(start_dim=1, end_dim=-1)
  (7): Linear(in_features=3200, out_features=16, bias=True)
  (8): ReLU()
  (9): Linear(in_features=16, out_features=16, bias=True)
  (10): ReLU()
  (11): Linear(in_features=16, out_features=64, bias=True)
  (12): ReLU()
  (13): Linear(in_features=64, out_features=64, bias=True)
  (14): ReLU()
)",WallEnv-v0,14,False,0.058808442,0.1570466
64632,64632,"Sequential(
  (0): Conv2d(3, 8, kernel_size=(2, 2), stride=(1, 1), padding=(1, 1))
  (1): ReLU()
  (2): Conv2d(8, 16, kernel_size=(2, 2), stride=(1, 1), padding=(1, 1))
  (3): ReLU()
  (4): Conv2d(16, 32, kernel_size=(2, 2), stride=(1, 1), padding=(1, 1))
  (5): ReLU()
  (6): Flatten(start_dim=1, end_dim=-1)
  (7): Linear(in_features=3200, out_features=16, bias=True)
  (8): ReLU()
  (9): Linear(in_features=16, out_features=16, bias=True)
  (10): ReLU()
  (11): Linear(in_features=16, out_features=128, bias=True)
  (12): ReLU()
  (13): Linear(in_features=128, out_features=64, bias=True)
  (14): ReLU()
)",WallEnv-v0,14,False,0.054910712,0.15107527
57640,57640,"Sequential(
  (0): Conv2d(3, 8, kernel_size=(2, 2), stride=(1, 1), padding=(1, 1))
  (1): ReLU()
  (2): Conv2d(8, 16, kernel_size=(2, 2), stride=(1, 1), padding=(1, 1))
  (3): ReLU()
  (4): Conv2d(16, 32, kernel_size=(2, 2), stride=(1, 1), padding=(1, 1))
  (5): ReLU()
  (6): Flatten(start_dim=1, end_dim=-1)
  (7): Linear(in_features=3200, out_features=16, bias=True)
  (8): ReLU()
  (9): Linear(in_features=16, out_features=32, bias=True)
  (10): ReLU()
  (11): Linear(in_features=32, out_features=32, bias=True)
  (12): ReLU()
  (13): Linear(in_features=32, out_features=64, bias=True)
  (14): ReLU()
)",WallEnv-v0,14,False,0.051794548,0.14565702
60744,60744,"Sequential(
  (0): Conv2d(3, 8, kernel_size=(2, 2), stride=(1, 1), padding=(1, 1))
  (1): ReLU()
  (2): Conv2d(8, 16, kernel_size=(2, 2), stride=(1, 1), padding=(1, 1))
  (3): ReLU()
  (4): Conv2d(16, 32, kernel_size=(2, 2), stride=(1, 1), padding=(1, 1))
  (5): ReLU()
  (6): Flatten(start_dim=1, end_dim=-1)
  (7): Linear(in_features=3200, out_features=16, bias=True)
  (8): ReLU()
  (9): Linear(in_features=16, out_features=32, bias=True)
  (10): ReLU()
  (11): Linear(in_features=32, out_features=64, bias=True)
  (12): ReLU()
  (13): Linear(in_features=64, out_features=64, bias=True)
  (14): ReLU()
)",WallEnv-v0,14,False,0.048990708,0.14079624
66952,66952,"Sequential(
  (0): Conv2d(3, 8, kernel_size=(2, 2), stride=(1, 1), padding=(1, 1))
  (1): ReLU()
  (2): Conv2d(8, 16, kernel_size=(2, 2), stride=(1, 1), padding=(1, 1))
  (3): ReLU()
  (4): Conv2d(16, 32, kernel_size=(2, 2), stride=(1, 1), padding=(1, 1))
  (5): ReLU()
  (6): Flatten(start_dim=1, end_dim=-1)
  (7): Linear(in_features=3200, out_features=16, bias=True)
  (8): ReLU()
  (9): Linear(in_features=16, out_features=32, bias=True)
  (10): ReLU()
  (11): Linear(in_features=32, out_features=128, bias=True)
  (12): ReLU()
  (13): Linear(in_features=128, out_features=64, bias=True)
  (14): ReLU()
)",WallEnv-v0,14,False,0.04594524,0.13650927
59208,59208,"Sequential(
  (0): Conv2d(3, 8, kernel_size=(2, 2), stride=(1, 1), padding=(1, 1))
  (1): ReLU()
  (2): Conv2d(8, 16, kernel_size=(2, 2), stride=(1, 1), padding=(1, 1))
  (3): ReLU()
  (4): Conv2d(16, 32, kernel_size=(2, 2), stride=(1, 1), padding=(1, 1))
  (5): ReLU()
  (6): Flatten(start_dim=1, end_dim=-1)
  (7): Linear(in_features=3200, out_features=16, bias=True)
  (8): ReLU()
  (9): Linear(in_features=16, out_features=64, bias=True)
  (10): ReLU()
  (11): Linear(in_features=64, out_features=32, bias=True)
  (12): ReLU()
  (13): Linear(in_features=32, out_features=64, bias=True)
  (14): ReLU()
)",WallEnv-v0,14,False,0.04336942,0.1325716
63336,63336,"Sequential(
  (0): Conv2d(3, 8, kernel_size=(2, 2), stride=(1, 1), padding=(1, 1))
  (1): ReLU()
  (2): Conv2d(8, 16, kernel_size=(2, 2), stride=(1, 1), padding=(1, 1))
  (3): ReLU()
  (4): Conv2d(16, 32, kernel_size=(2, 2), stride=(1, 1), padding=(1, 1))
  (5): ReLU()
  (6): Flatten(start_dim=1, end_dim=-1)
  (7): Linear(in_features=3200, out_features=16, bias=True)
  (8): ReLU()
  (9): Linear(in_features=16, out_features=64, bias=True)
  (10): ReLU()
  (11): Linear(in_features=64, out_features=64, bias=True)
  (12): ReLU()
  (13): Linear(in_features=64, out_features=64, bias=True)
  (14): ReLU()
)",WallEnv-v0,14,False,0.041718036,0.1289964
71592,71592,"Sequential(
  (0): Conv2d(3, 8, kernel_size=(2, 2), stride=(1, 1), padding=(1, 1))
  (1): ReLU()
  (2): Conv2d(8, 16, kernel_size=(2, 2), stride=(1, 1), padding=(1, 1))
  (3): ReLU()
  (4): Conv2d(16, 32, kernel_size=(2, 2), stride=(1, 1), padding=(1, 1))
  (5): ReLU()
  (6): Flatten(start_dim=1, end_dim=-1)
  (7): Linear(in_features=3200, out_features=16, bias=True)
  (8): ReLU()
  (9): Linear(in_features=16, out_features=64, bias=True)
  (10): ReLU()
  (11): Linear(in_features=64, out_features=128, bias=True)
  (12): ReLU()
  (13): Linear(in_features=128, out_features=64, bias=True)
  (14): ReLU()
)",WallEnv-v0,14,False,0.04082568,0.125532
108328,108328,"Sequential(
  (0): Conv2d(3, 8, kernel_size=(2, 2), stride=(1, 1), padding=(1, 1))
  (1): ReLU()
  (2): Conv2d(8, 16, kernel_size=(2, 2), stride=(1, 1), padding=(1, 1))
  (3): ReLU()
  (4): Conv2d(16, 32, kernel_size=(2, 2), stride=(1, 1), padding=(1, 1))
  (5): ReLU()
  (6): Flatten(start_dim=1, end_dim=-1)
  (7): Linear(in_features=3200, out_features=32, bias=True)
  (8): ReLU()
  (9): Linear(in_features=32, out_features=16, bias=True)
  (10): ReLU()
  (11): Linear(in_features=16, out_features=32, bias=True)
  (12): ReLU()
  (13): Linear(in_features=32, out_features=64, bias=True)
  (14): ReLU()
)",WallEnv-v0,14,False,0.03949181,0.1224191
110920,110920,"Sequential(
  (0): Conv2d(3, 8, kernel_size=(2, 2), stride=(1, 1), padding=(1, 1))
  (1): ReLU()
  (2): Conv2d(8, 16, kernel_size=(2, 2), stride=(1, 1), padding=(1, 1))
  (3): ReLU()
  (4): Conv2d(16, 32, kernel_size=(2, 2), stride=(1, 1), padding=(1, 1))
  (5): ReLU()
  (6): Flatten(start_dim=1, end_dim=-1)
  (7): Linear(in_features=3200, out_features=32, bias=True)
  (8): ReLU()
  (9): Linear(in_features=32, out_features=16, bias=True)
  (10): ReLU()
  (11): Linear(in_features=16, out_features=64, bias=True)
  (12): ReLU()
  (13): Linear(in_features=64, out_features=64, bias=True)
  (14): ReLU()
)",WallEnv-v0,14,False,0.060747575,0.17386526
116104,116104,"Sequential(
  (0): Conv2d(3, 8, kernel_size=(2, 2), stride=(1, 1), padding=(1, 1))
  (1): ReLU()
  (2): Conv2d(8, 16, kernel_size=(2, 2), stride=(1, 1), padding=(1, 1))
  (3): ReLU()
  (4): Conv2d(16, 32, kernel_size=(2, 2), stride=(1, 1), padding=(1, 1))
  (5): ReLU()
  (6): Flatten(start_dim=1, end_dim=-1)
  (7): Linear(in_features=3200, out_features=32, bias=True)
  (8): ReLU()
  (9): Linear(in_features=32, out_features=16, bias=True)
  (10): ReLU()
  (11): Linear(in_features=16, out_features=128, bias=True)
  (12): ReLU()
  (13): Linear(in_features=128, out_features=64, bias=True)
  (14): ReLU()
)",WallEnv-v0,14,False,0.06285605,0.17126252
109368,109368,"Sequential(
  (0): Conv2d(3, 8, kernel_size=(2, 2), stride=(1, 1), padding=(1, 1))
  (1): ReLU()
  (2): Conv2d(8, 16, kernel_size=(2, 2), stride=(1, 1), padding=(1, 1))
  (3): ReLU()
  (4): Conv2d(16, 32, kernel_size=(2, 2), stride=(1, 1), padding=(1, 1))
  (5): ReLU()
  (6): Flatten(start_dim=1, end_dim=-1)
  (7): Linear(in_features=3200, out_features=32, bias=True)
  (8): ReLU()
  (9): Linear(in_features=32, out_features=32, bias=True)
  (10): ReLU()
  (11): Linear(in_features=32, out_features=32, bias=True)
  (12): ReLU()
  (13): Linear(in_features=32, out_features=64, bias=True)
  (14): ReLU()
)",WallEnv-v0,14,False,0.06016605,0.16778569
112472,112472,"Sequential(
  (0): Conv2d(3, 8, kernel_size=(2, 2), stride=(1, 1), padding=(1, 1))
  (1): ReLU()
  (2): Conv2d(8, 16, kernel_size=(2, 2), stride=(1, 1), padding=(1, 1))
  (3): ReLU()
  (4): Conv2d(16, 32, kernel_size=(2, 2), stride=(1, 1), padding=(1, 1))
  (5): ReLU()
  (6): Flatten(start_dim=1, end_dim=-1)
  (7): Linear(in_features=3200, out_features=32, bias=True)
  (8): ReLU()
  (9): Linear(in_features=32, out_features=32, bias=True)
  (10): ReLU()
  (11): Linear(in_features=32, out_features=64, bias=True)
  (12): ReLU()
  (13): Linear(in_features=64, out_features=64, bias=True)
  (14): ReLU()
)",WallEnv-v0,14,False,0.057550132,0.16455574
118680,118680,"Sequential(
  (0): Conv2d(3, 8, kernel_size=(2, 2), stride=(1, 1), padding=(1, 1))
  (1): ReLU()
  (2): Conv2d(8, 16, kernel_size=(2, 2), stride=(1, 1), padding=(1, 1))
  (3): ReLU()
  (4): Conv2d(16, 32, kernel_size=(2, 2), stride=(1, 1), padding=(1, 1))
  (5): ReLU()
  (6): Flatten(start_dim=1, end_dim=-1)
  (7): Linear(in_features=3200, out_features=32, bias=True)
  (8): ReLU()
  (9): Linear(in_features=32, out_features=32, bias=True)
  (10): ReLU()
  (11): Linear(in_features=32, out_features=128, bias=True)
  (12): ReLU()
  (13): Linear(in_features=128, out_features=64, bias=True)
  (14): ReLU()
)",WallEnv-v0,14,False,0.06248458,0.1654898
111448,111448,"Sequential(
  (0): Conv2d(3, 8, kernel_size=(2, 2), stride=(1, 1), padding=(1, 1))
  (1): ReLU()
  (2): Conv2d(8, 16, kernel_size=(2, 2), stride=(1, 1), padding=(1, 1))
  (3): ReLU()
  (4): Conv2d(16, 32, kernel_size=(2, 2), stride=(1, 1), padding=(1, 1))
  (5): ReLU()
  (6): Flatten(start_dim=1, end_dim=-1)
  (7): Linear(in_features=3200, out_features=32, bias=True)
  (8): ReLU()
  (9): Linear(in_features=32, out_features=64, bias=True)
  (10): ReLU()
  (11): Linear(in_features=64, out_features=32, bias=True)
  (12): ReLU()
  (13): Linear(in_features=32, out_features=64, bias=True)
  (14): ReLU()
)",WallEnv-v0,14,False,0.060258977,0.16253544
115576,115576,"Sequential(
  (0): Conv2d(3, 8, kernel_size=(2, 2), stride=(1, 1), padding=(1, 1))
  (1): ReLU()
  (2): Conv2d(8, 16, kernel_size=(2, 2), stride=(1, 1), padding=(1, 1))
  (3): ReLU()
  (4): Conv2d(16, 32, kernel_size=(2, 2), stride=(1, 1), padding=(1, 1))
  (5): ReLU()
  (6): Flatten(start_dim=1, end_dim=-1)
  (7): Linear(in_features=3200, out_features=32, bias=True)
  (8): ReLU()
  (9): Linear(in_features=32, out_features=64, bias=True)
  (10): ReLU()
  (11): Linear(in_features=64, out_features=64, bias=True)
  (12): ReLU()
  (13): Linear(in_features=64, out_features=64, bias=True)
  (14): ReLU()
)",WallEnv-v0,14,False,0.058473997,0.15967095
123832,123832,"Sequential(
  (0): Conv2d(3, 8, kernel_size=(2, 2), stride=(1, 1), padding=(1, 1))
  (1): ReLU()
  (2): Conv2d(8, 16, kernel_size=(2, 2), stride=(1, 1), padding=(1, 1))
  (3): ReLU()
  (4): Conv2d(16, 32, kernel_size=(2, 2), stride=(1, 1), padding=(1, 1))
  (5): ReLU()
  (6): Flatten(start_dim=1, end_dim=-1)
  (7): Linear(in_features=3200, out_features=32, bias=True)
  (8): ReLU()
  (9): Linear(in_features=32, out_features=64, bias=True)
  (10): ReLU()
  (11): Linear(in_features=64, out_features=128, bias=True)
  (12): ReLU()
  (13): Linear(in_features=128, out_features=64, bias=True)
  (14): ReLU()
)",WallEnv-v0,14,False,0.05849074,0.15793756
