# Total Parameters,# Total Neurons,Model Summary,Environment,Size,Use Lava,Average Test Reward,Test Reward Variance
34880,34880,"Sequential(
  (0): Conv2d(3, 8, kernel_size=(2, 2), stride=(1, 1), padding=(1, 1))
  (1): ReLU()
  (2): Conv2d(8, 16, kernel_size=(2, 2), stride=(1, 1), padding=(1, 1))
  (3): ReLU()
  (4): Conv2d(16, 32, kernel_size=(2, 2), stride=(1, 1), padding=(1, 1))
  (5): ReLU()
  (6): Flatten(start_dim=1, end_dim=-1)
  (7): Linear(in_features=3200, out_features=8, bias=True)
  (8): ReLU()
  (9): Linear(in_features=8, out_features=32, bias=True)
  (10): ReLU()
  (11): Linear(in_features=32, out_features=64, bias=True)
  (12): ReLU()
  (13): Linear(in_features=64, out_features=64, bias=True)
  (14): ReLU()
)",WallEnv-v0,6,False,0.6639375,0.31373307
108328,108328,"Sequential(
  (0): Conv2d(3, 8, kernel_size=(2, 2), stride=(1, 1), padding=(1, 1))
  (1): ReLU()
  (2): Conv2d(8, 16, kernel_size=(2, 2), stride=(1, 1), padding=(1, 1))
  (3): ReLU()
  (4): Conv2d(16, 32, kernel_size=(2, 2), stride=(1, 1), padding=(1, 1))
  (5): ReLU()
  (6): Flatten(start_dim=1, end_dim=-1)
  (7): Linear(in_features=3200, out_features=32, bias=True)
  (8): ReLU()
  (9): Linear(in_features=32, out_features=16, bias=True)
  (10): ReLU()
  (11): Linear(in_features=16, out_features=32, bias=True)
  (12): ReLU()
  (13): Linear(in_features=32, out_features=64, bias=True)
  (14): ReLU()
)",WallEnv-v0,6,False,0.74675,0.2718143
115576,115576,"Sequential(
  (0): Conv2d(3, 8, kernel_size=(2, 2), stride=(1, 1), padding=(1, 1))
  (1): ReLU()
  (2): Conv2d(8, 16, kernel_size=(2, 2), stride=(1, 1), padding=(1, 1))
  (3): ReLU()
  (4): Conv2d(16, 32, kernel_size=(2, 2), stride=(1, 1), padding=(1, 1))
  (5): ReLU()
  (6): Flatten(start_dim=1, end_dim=-1)
  (7): Linear(in_features=3200, out_features=32, bias=True)
  (8): ReLU()
  (9): Linear(in_features=32, out_features=64, bias=True)
  (10): ReLU()
  (11): Linear(in_features=64, out_features=64, bias=True)
  (12): ReLU()
  (13): Linear(in_features=64, out_features=64, bias=True)
  (14): ReLU()
)",WallEnv-v0,6,False,0.7736251,0.26233912
111448,111448,"Sequential(
  (0): Conv2d(3, 8, kernel_size=(2, 2), stride=(1, 1), padding=(1, 1))
  (1): ReLU()
  (2): Conv2d(8, 16, kernel_size=(2, 2), stride=(1, 1), padding=(1, 1))
  (3): ReLU()
  (4): Conv2d(16, 32, kernel_size=(2, 2), stride=(1, 1), padding=(1, 1))
  (5): ReLU()
  (6): Flatten(start_dim=1, end_dim=-1)
  (7): Linear(in_features=3200, out_features=32, bias=True)
  (8): ReLU()
  (9): Linear(in_features=32, out_features=64, bias=True)
  (10): ReLU()
  (11): Linear(in_features=64, out_features=32, bias=True)
  (12): ReLU()
  (13): Linear(in_features=32, out_features=64, bias=True)
  (14): ReLU()
)",WallEnv-v0,6,False,0.7972969,0.25015435
38896,38896,"Sequential(
  (0): Conv2d(3, 8, kernel_size=(2, 2), stride=(1, 1), padding=(1, 1))
  (1): ReLU()
  (2): Conv2d(8, 16, kernel_size=(2, 2), stride=(1, 1), padding=(1, 1))
  (3): ReLU()
  (4): Conv2d(16, 32, kernel_size=(2, 2), stride=(1, 1), padding=(1, 1))
  (5): ReLU()
  (6): Flatten(start_dim=1, end_dim=-1)
  (7): Linear(in_features=3200, out_features=8, bias=True)
  (8): ReLU()
  (9): Linear(in_features=8, out_features=16, bias=True)
  (10): ReLU()
  (11): Linear(in_features=16, out_features=128, bias=True)
  (12): ReLU()
  (13): Linear(in_features=128, out_features=64, bias=True)
  (14): ReLU()
)",WallEnv-v0,6,False,0.7878563,0.25583065
